additional-studies/mini-project/ai-dev-deployment/models/pytorch_model.pth (torch, 409689 bytes, 4 tensors)

fc1.weight f4 [128, 784]
00000000: a5ec aabc 0067 64b9 584d 353c 58ce 4f3c
00000010: 0f17 0e3d 18b9 543c eadb ec3c ae26 8d3c
00000020: 2007 523c 9a75 83bc 54f0 0d3c 9926 0b3d
00000030: 4165 fcbc fc8e 963c 3814 cabb 644f 1e3c
00000040: 4818 aa3c 50a1 693b 03c6 febc 0a4f de3c
00000050: c0e8 0eba 50a1 15bb 00d8 a03b 0294 04bd
00000060: 86e0 f83c 601e fa3b 9ed9 e43c 988a 3c3c
00000070: 1ac4 88bc f49c 273c 283f 913c 5ef0 ff3c
00000080: da23 cabc 9039 cc3b af25 043d be40 bcbc
00000090: 54d4 9fbb 30c8 133c 788c edbc 72df dc3c
000000a0: f88a ce3b ceb9 c83c 4854 efbb 922f ee3c
000000b0: 94fc d1bb 8ec7 62bc f868 95bb 8473 643c
000000c0: f899 37bc 8edb 00bc de32 00bd caa7 11bc
000000d0: f092 17bb 90c8 a63c 7033 d1bb ee60 12bc
000000e0: e62c 6fbc c6bb ea3c 0b6d 103d 20ee 02bb
000000f0: 825f ff3c 7ef6 a43c a0d4 f9ba c2f5 b63c
00000100: e6f8 cd3c 14f8 edbb a022 bb3c 2016 683c
00000110: f6fc e93c 80fa 0d3a 8070 a63c 5041 ff3b
00000120: c097 0c3a a585 013d c086 0dbc 761a d23c
00000130: 78a5 c4bc e088 743b ce09 c3bc 2e88 6abc
00000140: e427 11bc 48e8 ac3c 7a60 d0bc 937a ffbc
00000150: 7035 643b 8e18 2dbc bcf1 573c e25a ca3c
00000160: 10f3 863b 24a1 313c 06a2 f93c 3069 d4bc
00000170: 6ec1 dc3c b25a 9c3c 4a12 efbc eca3 a0bc
00000180: 11e9 0f3d 40a6 983a a07e 10bb 7054 5a3b
00000190: ee5a 35bc 8c5b 11bd e453 f1bb 9c91 c9bb
000001a0: 78cf 9cbb a8fe bb3c f6c3 ce3c 989e 4bbc
000001b0: debd cdbc 6028 813c 0c8c c03c 30eb 4cbb
000001c0: 5cf5 083c 826b c93c 293b 0f3d 48a6 c73c
000001d0: 6e28 72bc 5d3a 06bd b4bb 04bd d0e5 3a3b
000001e0: 6826 173c 7272 943c 953d e1bc 484e fabc
000001f0: d0aa 2fbb fc0f 763c fcf6 b73c 14a9 debb
00000200: 3c98 aabc a881 123c e751 09bd f0c0 313c
00000210: 5ca3 c3bb 0040 b7b6 94d6 10bd 20ea 29bc
00000220: 8694 f13c aa80 f23c 4883 b23c d0a9 6a3b
00000230: c01b c8bb 502d 213c 40a5 8e3c 4c5d 94bc
00000240: 2adf a53c f26a eb3c 00e7 d0bc c89e e93b
00000250: 622d 823c 40fd 6fbc 60b2 f63b 106d 7b3c
00000260: 0beb 02bd 127b e43c 839f 063d 6e9f e23c
00000270: 2a2a 9c3c c813 abbc ce10 a63c 656f d6bc
00000280: 24a2 ecbb b257 cf3c bca1 773c ee62 d33c
00000290: 50f7 d3bc 809a 10bc 80ee 5eba 45f9 9abc
000002a0: 7e9f d63c 3072 963c 9c47 99bc 5850 3bbc
000002b0: c893 8e3b 40f7 9a3b d034 523b 2f11 0a3d
000002c0: 5e63 f23c bc62 89bc 8038 a83c 667b 22bc
000002d0: 8043 523c 9803 793c e040 803c 3ca4 54bc
000002e0: 5c4b cc3c d202 29bc a0cd 93ba 704b 56bb
000002f0: 1225 1fbc d0fd 48bb 70d7 cd3b d867 bd3c
00000300: daf2 a4bc 729a c33c 061f e13c 803f a53c
00000310: 208c a83a 4a63 68bc 6e49 81bc 0f8e 063d
00000320: 7f03 093d 43d8 ccbc 0dab 04bd cc98 e6bc
00000330: 883a a7bc 9875 3e3c 1cd5 1bbc 925b 3ebc
00000340: 2ee7 24bc 20f4 383b bc7d c8bc 5c0d 74bc
00000350: 7a07 cb3c 8664 36bc 48ed 993b 54b3 b4bb
00000360: acf6 06bd f639 12bd 66f3 0abd 607a 63bc
00000370: 6070 afbc 00a3 453b 90a8 dd3b f8af 683c
00000380: de38 e63c 4072 ffba ceb8 8a3c 3a34 04bd
00000390: d849 e5bc 762c df3c b53b 9abc aad0 e6bc
000003a0: 30d2 43bb 8020 a4b9 602b 2cbb a497 a0bb
000003b0: 8091 ef39 22d1 e33c 004d c93b 3c3f 563c
000003c0: 600c bdba 55ec e1bc 181d b2bc a82d 04bd
000003d0: 0352 a8bc 3a33 fe3c 2867 09bd a853 8b3b
000003e0: 69a9 023d 66a7 1fbc 807b 96bb 1edd d1bc
000003f0: 4015 c33a a099 b8bc dce2 0dbd de24 0dbd
-0.020864794 -0.00021782145 0.0110658035 0.0126834735 0.03468996 0.012983583 0.028913457 0.017230358
0.012819082 -0.016047288 0.008663256 0.033972356 -0.03081 0.018378727 -0.006166961 0.009662483
0.020763531 0.0035649128 -0.031100279 0.027137298 -0.00054515526 -0.0022831745 0.0049085617 -0.032367714
0.030380499 0.0076330155 0.0279358 0.011507653 -0.016695071 0.010230292 0.01773031 0.031242546
-0.024675298 0.006232448 0.0322625 -0.02298009 -0.0048776064 0.009019896 -0.028997645 0.026962016
0.0063031875 0.024502661 -0.0073037483 0.029075418 -0.0064082835 -0.013841523 -0.0045596324 0.013943557
-0.011206143 -0.007864846 -0.03129851 -0.008890102 -0.0023128353 0.020359308 -0.0063843057 -0.008934243
-0.014598107 0.02865399 0.03526024 -0.001997836 0.031173471 0.020137068 -0.001906056 0.022333983
0.025143098 -0.007262239 0.022843659 0.014165431 0.028563004 0.00054160506 0.020317316 0.0077897683
0.00053631887 0.031621594 -0.008638084 0.025647383 -0.024004683 0.003731303 -0.023808386 -0.014314694
-0.008859608 0.021106854 -0.025436629 -0.031186378 0.003482189 -0.010564936 0.013180193 0.02470154
0.004118331 0.010841642 0.030472767 -0.025929064 0.026947703 0.019086216 -0.029183526 -0.019609414
0.03513438 0.0011646226 -0.002204813 0.0033314489 -0.011069043 -0.035487697 -0.007364737 -0.006151391
-0.0047854744 0.022948578 0.025239926 -0.012427948 -0.02511495 0.015766323 0.02350428 -0.0031268112
0.0083592795 0.024587397 0.03496853 0.024371281 -0.014780147 -0.032770503 -0.03240557 0.0028518327
0.009225465 0.018120978 -0.027495185 -0.030554906 -0.0026804693 0.015018459 0.022456639 -0.006795058
-0.020824544 0.008942045 -0.033525374 0.010849223 -0.0059704017 -5.4612756e-06 -0.035360888 -0.010370761
0.029489767 0.029602367 0.021791115 0.0035806783 -0.0061068237 0.0098374635 0.017412782 -0.018110894
0.020248014 0.028737519 -0.025500774 0.007129524 0.01589078 -0.014647782 0.007528588 0.015345827
-0.031962436 0.027890716 0.032866966 0.027663913 0.019063074 -0.020883456 0.020271685 -0.026176164
-0.007221477 0.025310371 0.015114244 0.02580401 -0.025874764 -0.008825898 -0.0008504167 -0.01891769
0.026199099 0.018364996 -0.018710904 -0.01143273 0.004351113 0.0047291815 0.0032074936 0.033707794
0.029588398 -0.016770713 0.020534754 -0.009917116 0.012833476 0.015198611 0.015655935 -0.01297861
0.024938278 -0.010315614 -0.0011276491 -0.0032698773 -0.009713428 -0.0030668862 0.0062817857 0.023120806
-0.020135332 0.023877356 0.027480613 0.02017188 0.0012859143 -0.014183829 -0.015782084 0.03285032
0.0334506 -0.025005465 -0.03238969 -0.028149031 -0.020413652 0.011624716 -0.009511258 -0.011618512
-0.010064883 0.0028221682 -0.024474017 -0.014895763 0.024783839 -0.011132365 0.0046974756 -0.0055145416
-0.03295009 -0.035699807 -0.03392353 -0.013884157 -0.02141589 0.003015697 0.006764479 0.0142021105
0.028103288 -0.0019489005 0.016933825 -0.03227637 -0.027989313 0.02724288 -0.018827299 -0.02817567
-0.002987992 -0.00031304732 -0.002627097 -0.0049008895 0.00045694038 0.027809683 0.0061432123 0.0130766
-0.0014423244 -0.027578512 -0.021742389 -0.032270104 -0.020546919 0.031030286 -0.033545643 0.004251916
0.031899843 -0.009744501 -0.004592359 -0.025618132 0.0014883652 -0.022534192 -0.034640178 -0.034458987

fc1.bias f4 [128]
00000000: e302 cebc 8ee8 34bc aeaf da3c e3a2 a4bc
00000010: b003 193b dcb5 c23c 8745 0a3d 14f0 183c
00000020: 008a 73bc ead6 29bc b25b 6fbc d0c7 093c
00000030: f3aa e0bc 8059 4bbc 626a f93c 3cd0 2bbc
00000040: 0689 59bc c521 b3bc 1c4b 723c 5cec 6ebc
00000050: 9032 293c 9cda 3b3c 905e 6dbb 50ca 5a3c
00000060: 7882 2a3c 3cb3 1bbc 4c4b cc3c c0d0 9dbb
00000070: 941a b3bb c093 9c3b 9e28 d73c 63a0 00bd
00000080: 3822 40bc 4a5e dcbc 153c 093d 4e99 e2bc
00000090: f2ae 0bbd d4c6 633c b7be 02bd 40de cd3a
000000a0: 10e3 1a3b 5260 c83c 70a2 bfbc b648 973c
000000b0: 8aab b9bc e0b9 003c 400f e8bb c125 043d
000000c0: 0071 8dbc fe2c e43c 38d0 2f3c 506a c23b
000000d0: 780e 9a3b 6b6c 03bd 4698 df3c 244e 9fbb
000000e0: 1c44 f4bb 4e39 be3c 8d81 0c3d a31f ccbc
000000f0: ee11 06bc 3452 2f3c 4e65 dc3c a8e0 0c3c
00000100: a890 4e3c 6435 663c 8563 d6bc 80fc 20bc
00000110: 005f a2ba dc0e efbc 1487 f6bb c2c5 b13c
00000120: aa1d 91bc 94b7 78bc b4d2 02bd e2b2 f43c
00000130: ea70 f0bc 1c09 c1bc dc93 833c 5e44 d53c
00000140: 3c3b 7f3c 4798 113d f872 acbc 2edf b8bc
00000150: 9476 c6bb 6889 813b eebd fe3c b0be 4bbb
00000160: ee8e 56bc 5030 553c 5e49 efbc 60d9 95ba
00000170: fa75 94bc 22e2 ca3c 7653 ea3c c3e6 9fbc
00000180: 307a ac3b ee24 d8bc 40e7 943a 00d9 213c
00000190: 98ce bc3b 9a92 c53c 9eff af3c 8099 01bc
000001a0: fca3 98bc a063 1f3c 2b40 003d 1a1b a13c
000001b0: 7ea7 81bc a071 74bb 9c95 bfbc 5279 64bc
000001c0: a019 cb3c 9514 f2bc 0034 5cbb 5ebd b5bc
000001d0: 5863 bd3b 900e 133c c3c7 ebbc 0c88 eabc
000001e0: 938c b3bc c8a6 a63c 9216 e43c 36aa d83c
000001f0: 9cfc 67bc 9c80 c1bb 0035 0fbb faee dc3c
-0.02514786 -0.0110417735 0.026695099 -0.020097202 0.0023348145 0.023768358 0.033757713 0.009334583
-0.014864445 -0.010366181 -0.014609264 0.008409455 -0.027425265 -0.012411475 0.030446235 -0.010486659
-0.013277298 -0.021866689 0.014788415 -0.01458272 0.010326996 0.011465695 -0.0036219694 0.013353899
0.010407083 -0.009503182 0.024938248 -0.0048161447 -0.005465815 0.0047783554 0.026264485 -0.031402957
-0.011726908 -0.02690043 0.033504564 -0.027660992 -0.034102388 0.013902385 -0.03192016 0.0015706494
0.0023633875 0.024459992 -0.023392886 0.018467288 -0.022664804 0.007856816 -0.007081896 0.032262567
-0.017265797 0.027853485 0.010730796 0.0059330836 0.004701432 -0.032085817 0.02729429 -0.00486161
-0.0074544083 0.023220684 0.034303237 -0.02491743 -0.008182986 0.010700751 0.026903775 0.008598484
0.012607731 0.014050815 -0.026170501 -0.009825826 -0.0012387931 -0.02918189 -0.007523427 0.021700744
-0.01771434 -0.015180487 -0.031939223 0.029870454 -0.029350717 -0.023563914 0.016061716 0.026033577
0.015578087 0.035545614 -0.021050915 -0.022567358 -0.006056616 0.0039531477 0.031096425 -0.0031089
-0.0130956005 0.013012007 -0.029209789 -0.0011432581 -0.018122662 0.024766032 0.02860425 -0.019519215
0.0052635893 -0.026384797 0.0011360422 0.009878397 0.0057619326 0.024117757 0.021484192 -0.007910132
-0.018632881 0.009728342 0.031311195 0.019666243 -0.015826937 -0.003729917 -0.023386769 -0.013944941
0.024792492 -0.02955083 -0.003360033 -0.022185024 0.005779665 0.00897564 -0.028781777 -0.028629325
-0.021917617 0.0203432 0.027842794 0.02644835 -0.014159348 -0.005905224 -0.0021851659 0.026969422

fc2.weight f4 [10, 128]
00000000: d137 ab3d 2e97 0c3d 5f60 8f3d 7af4 583d
00000010: 61f0 a43d ff77 aabd 3aae 9cbd 343f b1bd
00000020: e93f af3d 9c12 963c 1d59 a03d 8867 a03c
00000030: e0b2 163c d654 6fbd f8f9 363c 4ee7 e5bc
00000040: bac2 3f3d 208c e2bb a923 14bd 2c02 82bd
00000050: 5d0c 1cbd 00d2 eabc 7bde a3bd d812 5ebd
00000060: a422 ec3c fa6e 08bd 0c26 6abd d802 30bc
00000070: bbd6 933d 91aa aa3d 7a8b 2fbd cfdf 84bd
00000080: 72bf 543d 9fd2 b33d 3001 aabc 920e 763d
00000090: 7dd5 a23d 30e7 9a3b a1fa 933d 3ade 6cbd
000000a0: 084a 83bd 7609 0a3d 18b2 18bc c307 823d
000000b0: 2085 65bc 0e88 653d 694a 913d 52fc 6e3d
000000c0: d534 8a3d b666 e7bc a006 593c 56c4 443d
000000d0: 00c9 f1b9 ea4d 5b3d 1e78 473d 6f2b 61bd
000000e0: 0d91 93bd ff56 07bd b6e5 1c3d d5fc 6cbd
000000f0: 44a6 a9bd a6d2 6e3d 62d1 eebc db84 b23d
00000100: fe97 333d 95b7 9bbd 40f8 a4ba 5a31 e2bc
00000110: b3a7 9abd d076 ae3c e18b 963d 00da 763b
00000120: a961 abbd 0c1d 09bd cbdb 88bd e69b 533d
00000130: bb6f b43d ce6b 223d bdb5 81bd 2d18 8f3d
00000140: 9e51 3d3d 7da4 8f3d ab86 9dbd 6303 9c3d
00000150: c0cd 7b3b 8385 ad3d 7d55 963d ba4e 01bd
00000160: c995 b43d a0b0 8fbc 7c77 66bd 9349 b03d
00000170: 8a91 95bd 402e 2cbc 3410 c43c 1e15 9ebd
00000180: 606a 5d3b 9a6e 503d ad8a 8abd cca5 ea3c
00000190: 1c0b e8bc 7432 a03c 9cfb 923c 0970 32bd
000001a0: 53f2 9d3d cdcf 8cbd 8049 573c 2822 3cbd
000001b0: 9b6d 1dbd fa57 51bd 08ab b13c 8e23 253d
000001c0: 00d4 e3ba 269c 153d b4a6 b43c c00c 69bc
000001d0: 0871 8e3c f2f1 23bd 7dd4 a43d c0a7 00bd
000001e0: bee4 253d e814 263c 3bd6 8d3d 3043 8cbc
000001f0: 6e8c 573d 201f d43b e87d cb3c 0895 353c
00000200: d0fc fdbc 2d06 a8bd f65a 713d 8e14 483d
00000210: b09f e0bc 00cd db3b 309f 1a3c 50a7 90bc
00000220: a891 d83c 69b7 8abd de1c 68bd 1f34 8f3d
00000230: f602 22bd 50af cf3c bf0d 893d 5834 07bc
00000240: fe27 9cbd ced7 0e3d f00e 0b3c e40b 96bc
00000250: 6ae2 1c3d 292f 4bbd 6f4c 24bd 913c 8e3d
00000260: 5207 6e3d e0eb 78bc f8b1 e73c e466 b83c
00000270: f6f0 49bd 2274 7a3d 9eb6 433d 67fe a53d
00000280: 631f b2bd 1463 b2bd ccbf 073d 4132 45bd
00000290: 209f 2dbc d0b4 d43b 89cc 883d 1589 08bd
000002a0: c036 1f3c 05be 66bd 7d45 933d 0cee 4fbd
000002b0: 5d2c a83d bc90 ec3c 5015 153d d00e eabb
000002c0: d15d 02bd 66bc 1c3d 169a 69bd 255a 873d
000002d0: 40bc 293b 0224 52bd 8e25 313d 60ca 5dbb
000002e0: 8f69 b23d d70e 9f3d 40e0 883c 415b 8e3d
000002f0: a0f6 48bd e0bf d73b 58af bd3c cc29 d3bc
00000300: 5ca8 8ebd c261 693d c5ff 8a3d 7041 8a3b
00000310: a024 7dbd 78e1 d1bc f6bb 94bd 4009 123b
00000320: f301 a93d 0216 8fbd 2027 a4bd fa17 053d
00000330: e28e 88bd 6a76 1d3d fd4f 9b3d 78ad c0bc
00000340: 16ce 72bd 2d2d 8f3d bc58 c33c 05e0 ad3d
00000350: 6055 76bb b5b2 a23d 80e7 a2bc 3cf7 ddbc
00000360: 3915 55bd a24c 743d 2d91 aa3d b05b 5fbc
00000370: 8c38 a8bd cacd 353d 000c edbb c37a b23d
00000380: d2fe 84bd c6f7 82bd e173 873d 4a2c 223d
00000390: f985 8cbd 4b72 03bd d76d 843d fea4 7e3d
000003a0: 5875 a83c 935d 0abd 1059 eabc 6b99 33bd
000003b0: 2733 8f3d 6858 bdbc ce7b 8abd 9b4a a83d
000003c0: a301 8c3d cc2d 15bd e873 8d3c 5fa8 65bd
000003d0: 7ae3 90bd 79c0 aabd 80c5 f23a c9ec 54bd
000003e0: caab 413d d310 86bd 0e63 633d 2ab0 a0bd
000003f0: c3eb 29bd 3029 a1bd 2c73 aebd d8e6 623c
0.083602555 0.034323864 0.07000803 0.052967526 0.08053661 -0.08323669 -0.076504186 -0.08654633
0.08557112 0.01831942 0.07829497 0.019580618 0.009197921 -0.058430515 0.011167996 -0.028064396
0.046816565 -0.006913677 -0.03616682 -0.063480705 -0.038097728 -0.028664589 -0.08001419 -0.05421719
0.028825112 -0.03330896 -0.05716519 -0.0107428655 0.07218691 0.08333314 -0.042857625 -0.064880006
0.05194039 0.08780407 -0.02075252 0.06007249 0.07950876 0.0047272667 0.07225538 -0.05782912
-0.06410605 0.03370043 -0.009319805 0.06349137 -0.01400879 0.056037955 0.07094271 0.0583461
0.06748358 -0.028247219 0.013246208 0.048038803 -0.0004611686 0.0535411 0.048698537 -0.054973062
-0.072054006 -0.03304195 0.038305007 -0.057858307 -0.08283666 0.05830636 -0.029152576 0.087167464
0.043846123 -0.07603375 -0.0012586191 -0.027611423 -0.07551517 0.021296889 0.073508985 0.003766656
-0.083682366 -0.033474967 -0.06682547 0.05166235 0.088103734 0.03965359 -0.06333492 0.06987033
0.046220414 0.070137955 -0.076917015 0.076178335 0.0038422197 0.08472731 0.07340524 -0.03156922
0.08817632 -0.017540276 -0.056266293 0.08607783 -0.0730315 -0.010509074 0.023933508 -0.077188715
0.0033785328 0.050886728 -0.067647316 0.028643511 -0.02832561 0.019555308 0.017942242 -0.043563876
0.07712235 -0.06875572 0.013140082 -0.04593101 -0.038434606 -0.05110929 0.021688 0.04031711
-0.0017381907 0.036525868 0.022052146 -0.014224231 0.017387882 -0.04002566 0.080483414 -0.03140998
0.04050135 0.01013682 0.06925627 -0.017121881 0.05262416 0.006473437 0.02484031 0.011082895
-0.03100434 -0.08204303 0.058924638 0.048847727 -0.027419895 0.0067077875 0.009437367 -0.017657906
0.026436642 -0.06773264 -0.056668155 0.06992363 -0.039553605 0.02535215 0.06692075 -0.008252226
-0.076248154 0.034873776 0.008487448 -0.018316217 0.038301863 -0.049605522 -0.040111955 0.06945146
0.05811245 -0.015192956 0.028283104 0.02251 -0.049302064 0.06114591 0.04778158 0.08105164
-0.08697393 -0.08710304 0.033141896 -0.04814363 -0.01059702 0.006491281 0.06679637 -0.033333857
0.009717643 -0.05633356 0.07190988 -0.05076413 0.082115866 0.028877608 0.03639728 -0.007142879
-0.03182775 0.03826561 -0.057031713 0.066089906 0.002589956 -0.05130387 0.043248706 -0.0033842549
0.0871154 0.07766502 0.016708493 0.06950999 -0.049063325 0.0065841526 0.0231549 -0.025776766
-0.06965706 0.056977995 0.067870654 0.0042192265 -0.061802506 -0.025620207 -0.07262413 0.0022283345
0.08252325 -0.069866195 -0.08015275 0.03249357 -0.06667878 0.038443007 0.07583616 -0.023520216
-0.05927857 0.069910385 0.023846023 0.08489994 -0.0037587509 0.07944242 -0.019885778 -0.02709543
-0.052022193 0.059643395 0.08328471 -0.0136327 -0.082139105 0.04438571 -0.0072340965 0.08714821
-0.064939156 -0.06394915 0.06613899 0.03959302 -0.06861491 -0.03209142 0.06466263 0.062169068
0.020563766 -0.033780646 -0.028606921 -0.043847483 0.069921784 -0.023113444 -0.06761895 0.08217355
0.0683625 -0.03642063 0.017267182 -0.056068774 -0.07074638 -0.083374925 0.0018521994 -0.05198363
0.04728297 -0.06546178 0.055514388 -0.07846101 -0.041484606 -0.07869184 -0.08518061 0.013848983

fc2.bias f4 [10]
00000000: e040 743b 6621 b0bd a7e1 a13d 4441 003d
00000010: 1e9e 593d 9218 5c3d 18f9 79bd d2c6 583d
00000020: 6057 0d3d ca5a 603d
0.0037270114 -0.0860012 0.07904368 0.031312242 0.053129308 0.05373437 -0.06102857 0.052923985
0.034507155 0.054774083
